src/pytorch_example_classifier/cifar_net.pth (torch, 251401 bytes, 10 tensors)

conv1.weight f4 [6, 3, 5, 5]
0	0x3e9834e3	0.2972785
1	0xbe0c8906	-0.13724145
2	0xbde11f63	-0.10992315
3	0x3e3b9e14	0.18322021
4	0x3eae44a2	0.34036738
5	0xbdd7f05e	-0.10543893
6	0xbf070ed6	-0.5275701
7	0xbf22f82a	-0.6365992
8	0xbe861cc5	-0.26193824
9	0x3c5389df	0.012911289
10	0xbd7a743f	-0.061146017
11	0xbeab8d7f	-0.3350639
12	0xbf3f2b34	-0.746753
13	0xbeb26553	-0.3484293
14	0xbeb24932	-0.3482147
15	0x3bd9482c	0.006630918
16	0xbe630277	-0.22168909
17	0xbee7c47b	-0.4526709
18	0xbe99c9ea	-0.3003686
19	0xbcd05fd4	-0.02543632
20	0x3e99e262	0.3005553
21	0xbdbf8ac4	-0.09352639
22	0xbed5d741	-0.41765788
23	0xbe354711	-0.17702891
24	0x3d5e9f69	0.054351244
25	0xbe891761	-0.2677565
26	0xbb4b0802	-0.0030980115
27	0xbd8ef373	-0.06980028
28	0xbe235d16	-0.15953478
29	0xbed83020	-0.42224216
30	0xbe6e35f3	-0.23262767
31	0xbe203ace	-0.15647432
32	0xbd46c08f	-0.048523482
33	0x3e0415b8	0.1289891
34	0xbe7dcec8	-0.24785912
35	0xbd4f00a6	-0.050537728
36	0x3dd42b3d	0.103598095
37	0x3ea5aeed	0.3236002
38	0x3ec57298	0.3856399
39	0xbcd30fec	-0.025764428
40	0xbea89659	-0.32927206
41	0x3dc18946	0.09450011
42	0x3e2e4212	0.17017391
43	0x3ee58d32	0.44834286
44	0xbba2958f	-0.0049616764
45	0xbf1f5d91	-0.62252146
46	0xbee4107a	-0.4454382
47	0xbeb42524	-0.35184586
48	0x3d86e752	0.065870896
49	0xbe1258ec	-0.14291734
50	0x3d021695	0.031759817
51	0x3efeabf6	0.4974057
52	0x3eda6b7c	0.4266013
53	0x3e61f93b	0.2206773
54	0xbedbb932	-0.4291473
55	0x3ce70e9d	0.02820521
56	0x3f0407c7	0.5157437
57	0x3ef9ad33	0.48764953
58	0x3f0243e0	0.5088482
59	0xbe072569	-0.13197865
60	0x3e8392ac	0.2569784
61	0x3f2bf7ad	0.671748
62	0x3f44e0fd	0.76905805
63	0x3f3c28a7	0.7349953
64	0x3df3d351	0.1190554
65	0xbe40a387	-0.1881238
66	0x3ee8803d	0.45410338
67	0x3f312a7f	0.6920547
68	0x3f501f5b	0.81297845
69	0x3dc94049	0.098267145
70	0xbed6e136	-0.41968697
71	0xbda4462a	-0.08021195
72	0x3eb893ab	0.36050162
73	0x3eb459c3	0.35224733
74	0xbeaaa757	-0.33330795
75	0x3d799120	0.060929418
76	0xbd43449b	-0.04767285
77	0xbd871ee3	-0.06597688
78	0x3e4b543a	0.19856349
79	0x3dcfa11a	0.101381496
80	0xbe510945	-0.20413692
81	0xbeb9a36a	-0.36257488
82	0x3c8aeebb	0.016959539
83	0x3c7bb528	0.015363015
84	0x3e7fee79	0.24993314
85	0xbe84b5fa	-0.25920087
86	0xbdde9880	-0.10868931
87	0x3d8137e8	0.063094914
88	0x3e6517e0	0.22372389
89	0x3e7954e4	0.2434879
90	0xbeacea70	-0.33772612
91	0x3af29743	0.0018508214
92	0x3d811d98	0.06304473
93	0x3e90591f	0.28192994
94	0x3e9a15ee	0.30094856
95	0x3e6026b9	0.21889772
96	0x3edc662b	0.43046698
97	0x3ebf093a	0.37311727
98	0x3e6fcbf4	0.23417646
99	0x3df35839	0.118820615
100	0x3dfcc698	0.12342566
101	0x3d516275	0.051119287
102	0xbe656810	-0.22402978
103	0x3e36bca0	0.17845392
104	0xbd39c883	-0.04535724
105	0xbd8ff6eb	-0.07029518
106	0xbea089fb	-0.3135527
107	0x3e4a2830	0.19741893
108	0x3dc7a71c	0.097486705
109	0xbc15033c	-0.009095009
110	0xbded2846	-0.11579947
111	0x3d65bb9c	0.05608712
112	0x3e074002	0.13208011
113	0x3e43d402	0.19123843
114	0xbe89f760	-0.26946545
115	0xbde6097d	-0.112322785
116	0x3e37c849	0.17947496
117	0x3dd02629	0.101635285
118	0xbe323c47	-0.17405806
119	0xbe9ad3f7	-0.3023984
120	0x3e8dfbe7	0.2773125
121	0x3ea615d7	0.32438537
122	0x3e03ca7b	0.12870209
123	0xbea5d96b	-0.3239244
124	0xbef46c72	-0.47738987
125	0xbcf707ae	-0.03015503
126	0xbe7aea17	-0.2450336
127	0x3c911b1f	0.017713128
128	0x3f167552	0.58772767
129	0x3ebc2761	0.36748794
130	0xbee5a85c	-0.4485501
131	0xbe90efee	-0.28308052
132	0x3e2f922a	0.17145601
133	0x3f0d97f6	0.5531
134	0x3ea4c812	0.32183892
135	0xbe43286d	-0.1905839
136	0xbccd6767	-0.02507372
137	0x3eccaa2d	0.39973584
138	0x3ef76ca5	0.48325077
139	0x3c52f78c	0.012876403
140	0xbe4eb6c3	-0.20186906
141	0x3e90ecea	0.2830575
142	0x3ed351d0	0.41273355
143	0x3e26a20a	0.1627275
144	0xbebacf0f	-0.36486098
145	0xbda08b42	-0.07839061
146	0x3def0967	0.11671715
147	0x3e43b433	0.1911171
148	0xbe4ad16b	-0.19806449
149	0xbed781bd	-0.4209117
150	0x3d5b0ce4	0.05347909
151	0x3f86822c	1.0508475
152	0x3f8bb073	1.0913223
153	0x3dfbf627	0.12302809
154	0xbf0df0b0	-0.55445385
155	0x3e1e3f9a	0.1545395
156	0x3f2d2f89	0.6765066
157	0x3f04bd20	0.5185108
158	0xbeda45f3	-0.42631492
159	0xbd971f5d	-0.07379029
160	0xbe793b7f	-0.24339102
161	0xbfd7aa43	-1.6848835
162	0xbfcef1de	-1.6167562
163	0xbee87337	-0.45400402
164	0x3f2f4493	0.6846401
165	0x3ee37484	0.44424832
166	0x3d8848b7	0.06654494
167	0xbe0b565e	-0.13607165
168	0x3e7b6ac3	0.24552445
169	0xbd86ba75	-0.065785326
170	0xbedf9a4b	-0.43672404
171	0x3e3e8dd5	0.18608792
172	0x3dc8bdc8	0.09801823
173	0x3d6103b3	0.05493517
174	0x3d4a72df	0.049425956
175	0x3d1ad9ba	0.037805296
176	0x3f83d211	1.0298482
177	0x3fb33501	1.400055
178	0x3eaf52a8	0.3424275
179	0xbef6e9e3	-0.48225316
180	0x3e6deece	0.23235628
181	0x3f672106	0.90284765
182	0x3f15a6f2	0.58457863
183	0xbe5ba988	-0.2145139
184	0xbdc05dba	-0.09392877
185	0xbe3d0d8b	-0.18462197
186	0xbfecefe3	-1.8510708
187	0xbfc0755f	-1.5035819
188	0xbef9fb9b	-0.48824772
189	0x3f342ee2	0.7038404
190	0x3eb3f297	0.3514602
191	0x3e024e7c	0.12725252
192	0xbe236318	-0.1595577
193	0x3d66ee0b	0.05637936
194	0xbd331fd1	-0.043731514
195	0xbed789af	-0.42097232
196	0xbdc5d41f	-0.096595995
197	0xbdb175f4	-0.08665076
198	0xbeb1bf28	-0.34716153
199	0xbebb2b11	-0.36556295
200	0xbef27cae	-0.47360748
201	0x3e1c2f31	0.15252377
202	0x3f026504	0.5093539
203	0xbc328752	-0.010896521
204	0xbe718a49	-0.23587908
205	0xbe9baeba	-0.30406743
206	0x3ee50d3d	0.44736663
207	0x3da012fb	0.0781612
208	0xbdf76e83	-0.12081625
209	0x3d68eb4a	0.056865014
210	0xbeeb52d9	-0.45961645
211	0xbfe622b6	-1.7979343
212	0xbfa27699	-1.2692443
213	0xbe8062d6	-0.25075406
214	0x3f17c163	0.5927946
215	0x3f05a406	0.52203405
216	0x3ef05e42	0.46946913
217	0x3f12cfde	0.5734843
218	0x3f19803e	0.5996131
219	0xbe03552c	-0.12825459
220	0xbde18586	-0.11011796
221	0x3f1b985f	0.60779375
222	0x3f2af345	0.6677745
223	0x3e5b3426	0.21406612
224	0xbe8ec40d	-0.2788395
225	0xbeb92d00	-0.36167145
226	0xbf10d8a6	-0.5658058
227	0xbf2b3099	-0.6687103
228	0xbf3ae8ac	-0.7301128
229	0xbeaa744f	-0.3329186
230	0xbf1ffaf9	-0.6249233
231	0xbf57598e	-0.84121025
232	0xbf25cf63	-0.6476957
233	0xbf00327e	-0.50077045
234	0xbec66dce	-0.3875565
235	0x3d693310	0.056933463
236	0x3ea862a2	0.3288775
237	0x3f336093	0.70069236
238	0x3f073a54	0.52823377
239	0x3e9b38ba	0.30316716
240	0x3f0bc51b	0.54597634
241	0x3efc8e81	0.49327472
242	0x3ed94d89	0.42441967
243	0x3ebd0037	0.36914226
244	0x3ed9e0e5	0.42554393
245	0x3ea5a52b	0.32352576
246	0x3e7d31c4	0.24726015
247	0xbc792d63	-0.015208575
248	0x3e92532c	0.2857908
249	0x3f0a74db	0.5408456
250	0xba968e41	-0.0011486487
251	0xbd721634	-0.059103206
252	0xbe4eb02d	-0.20184393
253	0xbe21e659	-0.15810527
254	0x3e24b75c	0.16085571
255	0xbe79a26b	-0.24378364

conv1.bias f4 [6]
0	0x3efc074a	0.4922431
1	0x3dfe3cf5	0.124139704
2	0xbf7a97f7	-0.9788813
3	0xbf3091f2	-0.68972695
4	0xbf63f486	-0.8904499
5	0xbf19f9bb	-0.60146683

conv2.weight f4 [16, 6, 5, 5]
0	0x3f224f04	0.6340182
1	0x3e3aa215	0.18225892
2	0x3e847e15	0.25877443
3	0x3e273cb1	0.16331746
4	0x3d50df8c	0.05099444
5	0x3e57108b	0.21002404
6	0xbe0fcfc3	-0.14044099
7	0xbdf7d435	-0.12101022
8	0xbea77476	-0.3270604
9	0xbe3011db	-0.17194311
10	0xbd6745a7	-0.05646291
11	0xbe0ea94e	-0.13931772
12	0xbe03d3de	-0.1287379
13	0xbe96ed8a	-0.29478103
14	0xbd747d9c	-0.059690103
15	0xbd5ea48b	-0.05435614
16	0x3e1482cd	0.14503022
17	0x3d9f0bcf	0.07765924
18	0xbc210821	-0.009828598
19	0x3e483fd8	0.19555604
20	0x3e7cf212	0.24701717
21	0x3e1fcad6	0.1560472
22	0xbd4871d0	-0.048936665
23	0x3d441461	0.047870997
24	0xbda4e338	-0.08051151
25	0x3ddf9b16	0.10918252
26	0x3f388d8e	0.72090995
27	0x3e72119f	0.23639534
28	0x3efcbf51	0.49364713
29	0x3f1e3506	0.6179966
30	0xbe21ff27	-0.15819989
31	0xbc964516	-0.01834349
32	0xbcd43e28	-0.025908545
33	0xbd38aef3	-0.04508872
34	0x3f0ede11	0.55807596
35	0xbf004a08	-0.5011296
36	0xbeb4eb4a	-0.3533576
37	0x3d44880f	0.047981318
38	0x3e814f5b	0.25255856
39	0x3f24d104	0.6438143
40	0xbe35b325	-0.1774412
41	0x3d63dc95	0.055630285
42	0x3db8eb6f	0.090292804
43	0xbd6b9488	-0.057514697
44	0x3e888cba	0.26669866
45	0xbe9a5d93	-0.30149516
46	0xbcdb62d6	-0.026780527
47	0xbed3df72	-0.41381413
48	0xbe614040	-0.21997166
49	0x3d30e9e0	0.04319179
50	0x3cd1726a	0.025567252
51	0x3e070d3a	0.1318864
52	0x3de630b7	0.1123976
53	0xbdc6ad28	-0.09700996
54	0x3e50047f	0.20314215
55	0x3e246ed0	0.16057897
56	0xbe9a7149	-0.30164555
57	0x3df5145a	0.119667724
58	0xbd393ce2	-0.045224078
59	0xbe976c34	-0.2957474
60	0x3eafb12d	0.34314862
61	0x3e33ac8b	0.17546289
62	0x3e89bbe6	0.26901168
63	0xbd94a492	-0.07257952
64	0xbf163204	-0.5867007
65	0x3eb10b49	0.34578922
66	0x3ee336db	0.4437779
67	0x3cabf724	0.02099187
68	0xbe7e5f00	-0.24840927
69	0xbeaaf69b	-0.3339127
70	0xbdf76fa3	-0.1208184
71	0xbdacda13	-0.08440032
72	0xbe53f458	-0.20698678
73	0xbdedadec	-0.116054386
74	0xbed925f8	-0.4241178
75	0xbc00e296	-0.007866522
76	0xbe329ff5	-0.17443831
77	0xbe3e1d07	-0.1856576
78	0xbea4fa67	-0.32222292
79	0xbe07fbad	-0.132796
80	0x3e8c3693	0.27385387
81	0xbe867db0	-0.26267767
82	0xbec48734	-0.38384402
83	0x3e08ab0b	0.13346498
84	0x3f28065e	0.65634716
85	0x3e3eaf61	0.18621589
86	0x3daa1f45	0.083067454
87	0x3d9c6ff3	0.0763854
88	0x3de7b015	0.11312882
89	0xbd954cc7	-0.07290035
90	0x3e12c831	0.1433418
91	0x3e18945c	0.14900345
92	0x3d8d2e3b	0.068935834
93	0xbeb4439e	-0.35207838
94	0xbf313a69	-0.6922975
95	0x3dcbaa04	0.09944537
96	0x3d99a930	0.07502973
97	0xbe58eb0e	-0.21183416
98	0xbeffe723	-0.4998103
99	0xbed7fb76	-0.42184037
100	0xbe9315b2	-0.2872749
101	0xbdd41e32	-0.10357322
102	0xbd8744ca	-0.06604917
103	0xbdd6bbb6	-0.10485022
104	0xbdc58690	-0.096448064
105	0xbd2ab0ea	-0.041672625
106	0x3dce468a	0.10072048
107	0x3d29153c	0.041280016
108	0x3e883460	0.2660246
109	0xbd55d225	-0.052202363
110	0x3e5ae3fb	0.2137603
111	0x3ef4dc61	0.47824386
112	0x3e6cd813	0.23129301
113	0x3e402434	0.1876381
114	0xbec72f68	-0.38903356
115	0x3e6ae550	0.22939038
116	0xbdfc5af8	-0.123220384
117	0xbe922d91	-0.2855039
118	0xbe6fbb5e	-0.23411319
119	0xbeb54d5d	-0.35410586
120	0x3dd407ec	0.103530735
121	0xbe95cb34	-0.29256594
122	0xbc94a4fd	-0.018145079
123	0xbd77b40b	-0.060474437
124	0x3c91f6dc	0.017817907
125	0x3df9b56a	0.12192805
126	0xbe81e358	-0.25368762
127	0x3d05b9bc	0.032647833
128	0x3e98c469	0.2983735
129	0x3e08aa89	0.13346304
130	0xbe2b2ed3	-0.16717081
131	0xbe17f874	-0.14840871
132	0x3e77089a	0.24124375
133	0x3e8d63f1	0.27615312
134	0x3e65c622	0.22438863
135	0xbda7d7d4	-0.08195463
136	0xbd051766	-0.032493018
137	0xbe9edc6e	-0.3102755
138	0xbe8ebd65	-0.27878872
139	0xbe8de73f	-0.2771549
140	0xbd54c3ac	-0.05194442
141	0xbdfe1e1b	-0.12408086
142	0xbf04d527	-0.51887745
143	0xbef1e6e2	-0.47246462
144	0xbeedb6ac	-0.4642843
145	0xbd7d740c	-0.06187825
146	0xbe9f85fb	-0.31156906
147	0xbf09cd56	-0.5382894
148	0xbdc94ad5	-0.09828726
149	0xbf0ec522	-0.5576955
150	0x3d88799f	0.066638224
151	0x3cae5b82	0.021283869
152	0x3e342f1a	0.17596093
153	0x3ea05e73	0.3132206
154	0x3e7581fd	0.23975368
155	0xbdc26e0b	-0.09493645
156	0x3d551ebd	0.052031267
157	0x3dea3e54	0.114376694
158	0x3d0eb667	0.03484192
159	0xbd42a1dd	-0.047517646
160	0xbe16bee7	-0.14721261
161	0xbe258aa5	-0.1616617
162	0x3c8bd6c2	0.017070178
163	0x3e2171e4	0.15766102
164	0xbe06362d	-0.13106604
165	0x3c891c74	0.0167372
166	0x3d6faa87	0.058512237
167	0x3c8e94e8	0.017404988
168	0x3dff27cb	0.12458762
169	0x3e80983a	0.2511614
170	0xbed5bc8f	-0.4174542
171	0xbecc46e9	-0.3989785
172	0xbe69675f	-0.22793339
173	0xbda85691	-0.08219636
174	0xbe34bfe2	-0.17651322
175	0xbcd80dbd	-0.026373738
176	0xbee70268	-0.45119023
177	0xbdf90bc6	-0.12160449
178	0xbde5d719	-0.11222667
179	0xbe4d67d0	-0.20059133
180	0x3c3474d9	0.011014187
181	0xbeaf0c8e	-0.34189266
182	0x3d9e5def	0.0773276
183	0x3e2d54ff	0.16926955
184	0x3e65cf03	0.2244225
185	0x3e5c0075	0.2148455
186	0x3d11d443	0.03560282
187	0x3deac6ea	0.11463721
188	0x3d8480c6	0.06469874
189	0x3ebdce03	0.37071237
190	0xbe7c36cc	-0.24630278
191	0xbe04decc	-0.12975615
192	0xbdfd0e48	-0.123562396
193	0x3e336b76	0.17521462
194	0x3e02af0d	0.12762089
195	0xbf441691	-0.76596934
196	0xbef96a40	-0.48713875
197	0xbe90d669	-0.28288582
198	0xbdd85883	-0.10563757
199	0xbd88ddda	-0.0668294
200	0x3eb2b9f6	0.34907502
201	0x3da8d27d	0.082432725
202	0x3aedac84	0.0018133079
203	0x3dba31e6	0.090915486
204	0x3e43daaa	0.19126382
205	0xbd0707da	-0.032966472
206	0xbcf0a20d	-0.029374147
207	0x3a3e4228	0.0007257783
208	0xbe6d6f41	-0.23186971
209	0x3e611c3b	0.21983425
210	0x3e49626c	0.19666451
211	0x3d8c2c37	0.06844371
212	0xbe2128a0	-0.15738153
213	0xbd9760f0	-0.07391536
214	0x3e58095e	0.21097323
215	0xbe8cf817	-0.27533028
216	0xbeb091bf	-0.34486195
217	0xbdc9bd1f	-0.09850525
218	0xbd476cc0	-0.048687696
219	0xbbfe6d1b	-0.007764471
220	0x3c3ccb82	0.011523129
221	0xbbbbf382	-0.0057358155
222	0xbdbf0dcf	-0.09328806
223	0xbc80e83b	-0.015735736
224	0x3d7125be	0.058873884
225	0x3e97f5eb	0.29679808
226	0x3cce30d0	0.02516976
227	0x3d8cf6d2	0.06883015
228	0x3da578b8	0.08079666
229	0x3dd86479	0.10566039
230	0x3f4e5949	0.8060499
231	0x3efb5519	0.49088362
232	0x3eb05161	0.34437087
233	0x3ea80e2a	0.32823306
234	0x3df79182	0.120883
235	0x3ea93086	0.33044833
236	0x3ea5010c	0.3222736
237	0x3ed98416	0.42483586
238	0x3ee53c86	0.44772738
239	0x3e36d247	0.17853652
240	0xbf0a85b9	-0.54110295
241	0xbdd5fec2	-0.10448982
242	0x3d4b6a7a	0.04966209
243	0x3d3cef34	0.04612656
244	0x3e0c0667	0.13674317
245	0xbe4794af	-0.19490312
246	0x3d862fc0	0.06552076
247	0xbe805b65	-0.25069728
248	0xbecacbb0	-0.39608526
249	0xbf001b28	-0.5004144
250	0xbe9bf612	-0.30461174
251	0xbe4028c8	-0.18765557
252	0xbf0ae950	-0.54262257
253	0xbf2e820b	-0.6816718
254	0xbf7260ad	-0.94678766
255	0xbed361ba	-0.41285497

conv2.bias f4 [16]
0	0x3cc4fec5	0.024047265
1	0x3ca71aea	0.020398576
2	0x3e90fcc6	0.2831785
3	0x400b2063	2.1738517
4	0xbfb6bebf	-1.4276961
5	0xbfe8bd02	-1.8182681
6	0xbd2a81c9	-0.04162768
7	0x3fb28f5d	1.3950001
8	0x402f658a	2.7405725
9	0xbfac9333	-1.3482422
10	0x3e90a899	0.2825363
11	0x3f0d3c15	0.551698
12	0xbece346d	-0.40274373
13	0xbfb63b85	-1.4236914
14	0xbf883e04	-1.0643926
15	0x40199d35	2.4002202

fc1.weight f4 [120, 400]
0	0xbc926710	-0.01787141
1	0xbe149b02	-0.14512256
2	0x3cbcaa28	0.023030356
3	0x3e35dab4	0.1775921
4	0xbdc0f8ed	-0.09422479
5	0x3dfaf4ff	0.122537605
6	0x3d44e325	0.048068184
7	0x3d83131f	0.064001314
8	0x3dac494b	0.08412417
9	0xbca810ba	-0.020515788
10	0xbe216557	-0.15761314
11	0xbdbd9dad	-0.0925859
12	0xbcf7e674	-0.030261256
13	0xbe21b58f	-0.15791915
14	0xbe4888c7	-0.19583426
15	0xbe1a58e2	-0.15072969
16	0xbdb7e135	-0.08978502
17	0xbd656a21	-0.056009416
18	0xbcb336b3	-0.021876669
19	0xbcfdce9e	-0.030982312
20	0xbe78e55e	-0.24306247
21	0xbdccac9d	-0.09993861
22	0xbd8c1289	-0.06839473
23	0xbd9f0eb1	-0.07766474
24	0xbd9151a2	-0.07095648
25	0x3e56758d	0.2094328
26	0x3c541b2b	0.0129459305
27	0x3d78d2a1	0.060747746
28	0x3e958565	0.29203334
29	0xbb918004	-0.0044403095
30	0x3e58ade7	0.21160088
31	0x3eb20abf	0.34773824
32	0x3e4f88ed	0.20267077
33	0x3e714d6a	0.23564687
34	0x3dd23fa2	0.10266043
35	0xbcfdfd9c	-0.03100472
36	0x3c8437a4	0.016139813
37	0xbe85d44f	-0.2613854
38	0xbe71cdf8	-0.23613727
39	0xbe22c947	-0.15897094
40	0xbdaab4cc	-0.083352655
41	0x3d96ce19	0.07363529
42	0xbe737229	-0.23774017
43	0x3d0d570f	0.034506854
44	0xbc9fe576	-0.019518595
45	0xbd718ccf	-0.058972176
46	0x3d9505ae	0.07276474
47	0x3dbf7275	0.09348003
48	0x3e7e8657	0.24855934
49	0x3dbab7f9	0.09117121
50	0xbdc72a75	-0.09724895
51	0xbddc05d2	-0.10743298
52	0xbdbb8101	-0.09155465
53	0xbe01986e	-0.12655804
54	0xbe0abb0e	-0.13547918
55	0x3dcdb811	0.100448735
56	0xbd41abd2	-0.047283
57	0x3d431c27	0.04763427
58	0xbdd40ad9	-0.103536315
59	0x3e132d2f	0.14372705
60	0x3e2210ae	0.15826675
61	0x3c3b411a	0.011429096
62	0x3d908302	0.07056238
63	0x3ea0e188	0.31422067
64	0x3e33f286	0.17572984
65	0x3c90b291	0.017663272
66	0xbd07ba03	-0.03313638
67	0xbda86499	-0.082223125
68	0x3dafa864	0.0857704
69	0x3d47d92a	0.04879109
70	0xbdbf35ea	-0.09336455
71	0xbe963667	-0.2933838
72	0xbea11983	-0.31464776
73	0xbda85b68	-0.08220559
74	0xbdb81361	-0.08988071
75	0xbd2cc0f5	-0.042176206
76	0x3c09c55b	0.00840887
77	0xbcd5bfa8	-0.026092365
78	0x3cf5e726	0.030017447
79	0x3e77ed4c	0.24211615
80	0x3d743562	0.059621222
81	0xbcca67d1	-0.024707707
82	0x3c443190	0.011974707
83	0x3db844bd	0.08997486
84	0x3e178923	0.14798407
85	0xbdf5ab7b	-0.11995598
86	0x3dadd1cc	0.08487281
87	0x3d27fabf	0.041010614
88	0xbcd1d0d9	-0.025612282
89	0xbe4978cc	-0.19674987
90	0x3d1c3569	0.038136873
91	0x3cb630ad	0.022240007
92	0xbd28398a	-0.0410705
93	0xbd8ca576	-0.06867497
94	0x3e39c734	0.18142396
95	0xbd5d69c1	-0.054055933
96	0x3d94cb91	0.0726539
97	0xbdefc434	-0.11707345
98	0x3d97f6b5	0.074201025
99	0x3cead327	0.028665138
100	0x3d80e160	0.06292987
101	0xbd8a8f01	-0.06765557
102	0xbca2d794	-0.019878186
103	0x3df4a4d5	0.11945502
104	0xbdb65149	-0.08902223
105	0xbde510d4	-0.1118485
106	0x3e1b02db	0.15137808
107	0xbcc61a51	-0.02418247
108	0x3da6ce4a	0.08144815
109	0xbceda0df	-0.029007373
110	0x3e5fbb0d	0.21848698
111	0x3dbd0ca2	0.09230925
112	0x3da5c22a	0.080936745
113	0xbde43f5f	-0.111448996
114	0x3e754e6c	0.23955697
115	0xbc2f17ff	-0.010686873
116	0xbe2c6744	-0.16836268
117	0x3ddd3a06	0.10802083
118	0xbe0940e0	-0.13403654
119	0x3da25931	0.07927168
120	0xbe16ce6f	-0.14727186
121	0xbe030964	-0.12796551
122	0x3c0cb2cd	0.008587551
123	0x3ea0a78b	0.31377825
124	0xbe03d9be	-0.12876031
125	0xbc87ac1f	-0.016561566
126	0x3e40f943	0.18845086
127	0x3e04472f	0.1291778
128	0xbc78a9b8	-0.015177183
129	0x3ea0384b	0.31292948
130	0xbe2d45ba	-0.1692113
131	0xbe3bdb71	-0.18345429
132	0xbe05e7f8	-0.1307677
133	0xbe1b8ac8	-0.1518966
134	0xbe76893f	-0.24075793
135	0x3e904819	0.28180006
136	0xbcae55f9	-0.02128123
137	0x3e402757	0.18765007
138	0x3e1d232c	0.15345448
139	0x3e936b05	0.28792587
140	0x3dd86e46	0.10567908
141	0x3e750753	0.23928575
142	0xbcd58707	-0.026065363
143	0x3df89caf	0.1213926
144	0xbe099338	-0.13435066
145	0x3c1d73ee	0.009610159
146	0x3cb62cdd	0.02223819
147	0xbd46e920	-0.04856217
148	0x3e099cfc	0.13438791
149	0xbdd84bb8	-0.10561317
150	0xbda2f428	-0.07956725
151	0xbd598e28	-0.053114086
152	0x3d3e7213	0.04649551
153	0x3e2b7eaf	0.16747545
154	0x3d1c7b85	0.038203735
155	0xbb90256e	-0.004398993
156	0xbd5fa865	-0.054603953
157	0x3dcf816f	0.101321094
158	0x3dcaa13c	0.09894034
159	0x3d9aef40	0.075651646
160	0xbcc7c582	-0.024386171
161	0xbe4c91d5	-0.19977506
162	0xbe3bc70f	-0.18337654
163	0xbddeeb9c	-0.10884783
164	0xbe328d06	-0.17436609
165	0x3cee6971	0.029103013
166	0xbdbb8278	-0.09155744
167	0xbceb5587	-0.028727306
168	0xbde3923b	-0.111118756
169	0x3dc8e9e8	0.09810239
170	0x3ceb91af	0.02875599
171	0x3d999a97	0.07500189
172	0x3dba5e1c	0.09099981
173	0x3cfd0cb1	0.03088984
174	0x3d4151f7	0.04719731
175	0xbe40f52d	-0.18843527
176	0xbe4bfe57	-0.19921242
177	0xbd47c0a8	-0.048767716
178	0xbe9bc54e	-0.3042397
179	0x3d3f6e64	0.046736136
180	0xbdb82f96	-0.08993451
181	0xbe1acf58	-0.15118158
182	0xbe7edb3f	-0.24888323
183	0xbe8b884a	-0.27252418
184	0xbe270c67	-0.16313325
185	0x3d38cb7b	0.04511593
186	0x3c929474	0.017893054
187	0xbd28604d	-0.041107465
188	0x3e3a0fc5	0.18170078
189	0xbe17746f	-0.1479051
190	0xbe264140	-0.16235828
191	0xbdc450f3	-0.09585752
192	0xbd1fea06	-0.03904154
193	0xbdde93b5	-0.10868017
194	0xbe1a5b86	-0.15073976
195	0xbe4a6d0c	-0.1976816
196	0xbe1f8518	-0.15578115
197	0xbc7e9454	-0.015538294
198	0xbbc6ac78	-0.0060630403
199	0xbe1c01fa	-0.15235129
200	0xbe700073	-0.23437671
201	0xbe11df55	-0.1424535
202	0xbd6b16e1	-0.057394866
203	0xbdad0d75	-0.08449832
204	0xbe098fe7	-0.134338
205	0x3d10901f	0.035293695
206	0x3d110f4a	0.03541497
207	0x3e605998	0.21909177
208	0x3dda6333	0.10663452
209	0xbd159aac	-0.03652446
210	0xbdc70372	-0.09717454
211	0x3d290530	0.041264713
212	0x3e20400a	0.15649429
213	0xbe2f7185	-0.17133148
214	0x3e1bbd6f	0.15208982
215	0xbd36c8f9	-0.044625256
216	0xbc30e6cf	-0.010797217
217	0xbcda03b4	-0.026613094
218	0xbe0c1a10	-0.13681817
219	0x3dfa0969	0.12208826
220	0xbddbee3d	-0.107388
221	0xbe576c9b	-0.21037523
222	0xbd6a55af	-0.05721062
223	0xbd245cef	-0.04012769
224	0x3e353a4b	0.17698018
225	0x3da79134	0.08181992
226	0x3c5491ad	0.012974185
227	0xbd3e6d10	-0.04649073
228	0xbdf23f5a	-0.118284896
229	0xbe165d05	-0.14683922
230	0x3d91e24c	0.07123241
231	0x3e8a4eb6	0.27013177
232	0x3e319130	0.17340541
233	0xbd1e90d8	-0.038712353
234	0x3d9251f6	0.07144539
235	0x3dce95e9	0.10087187
236	0xbda78246	-0.081791446
237	0x3d1e4c26	0.03864684
238	0x3d0a72b1	0.033800784
239	0xbd2d1de6	-0.04226484
240	0x3e02af28	0.1276213
241	0xbd4abda5	-0.049497265
242	0xbe90eb55	-0.28304544
243	0xbdffa1f1	-0.1248206
244	0xbcc10f80	-0.023566961
245	0xbda2545f	-0.07926249
246	0xbe3c1124	-0.18365914
247	0xbd2a8159	-0.04162726
248	0xbd5b2a50	-0.05350715
249	0xbdb2ef3e	-0.08737038
250	0xbd99c473	-0.07508173
251	0x3e91c2f1	0.2846904
252	0x3e1b8ac2	0.1518965
253	0xbdc8b435	-0.09799997
254	0xbe5cc136	-0.21558079
255	0xbccae507	-0.024767412

fc1.bias f4 [120]
0	0xbdeab486	-0.11460213
1	0x3df7cc11	0.120994695
2	0xbe1161fe	-0.14197537
3	0x3e4911af	0.19635652
4	0x3e145d78	0.1448878
5	0x3ed47236	0.41493386
6	0xbe8a86dd	-0.27056018
7	0x3de064c8	0.109567225
8	0xbcca2d91	-0.02467993
9	0xbe9386cb	-0.28813776
10	0x3e9dff05	0.30858627
11	0xbd876834	-0.06611672
12	0x3cefcc90	0.029272348
13	0xbd83f80c	-0.064437956
14	0x3e4af0df	0.19818448
15	0x3e554ef6	0.20830902
16	0x3e40ec57	0.18840156
17	0xbe749d35	-0.23888095
18	0x3de7c8e4	0.11317614
19	0xbca2accc	-0.019857787
20	0x3dbce310	0.09222996
21	0x3e58aaa6	0.21158847
22	0x3dcbf6ee	0.099592075
23	0xbed0c399	-0.4077423
24	0x3e1f5a51	0.15561797
25	0x39d5a88d	0.00040752106
26	0xbdef62c0	-0.11688757
27	0x3dca1e5c	0.09869072
28	0x3e3a88b4	0.1821621
29	0xbd7e5a3d	-0.062097777
30	0x3e3b63b2	0.1829975
31	0xbe31dbcc	-0.17369002
32	0x3dfd722d	0.12375293
33	0xbeae7be1	-0.34078887
34	0x3db4e033	0.08831825
35	0xbe87617e	-0.26441568
36	0x3ed29a78	0.41133475
37	0xbe90e9f3	-0.2830349
38	0x3e5098b7	0.20370756
39	0x3e9bb203	0.3040925
40	0xbe5f026a	-0.21778265
41	0xbd94f759	-0.0727374
42	0x3de52ef5	0.11190597
43	0xbeb71f16	-0.35765904
44	0xbe747ff4	-0.23876935
45	0xbcdb657a	-0.026781786
46	0xbd1019f9	-0.03518102
47	0xbda8c0d8	-0.08239907
48	0x3e436212	0.1908038
49	0x3d608793	0.054816794
50	0xbead48d9	-0.3384464
51	0xbe05a3e0	-0.13050795
52	0x3e97165e	0.29509252
53	0xbe18edf1	-0.14934517
54	0x3c5689a0	0.013094336
55	0xbd9464d5	-0.07245795
56	0x3e5131fd	0.20429225
57	0x3eb6854b	0.3564857
58	0x3e134d53	0.14384966
59	0x3ea45201	0.32093814
60	0xbe3192d3	-0.17341165
61	0x3e47ee76	0.1952456
62	0x3f229eea	0.63523734
63	0xbd08e879	-0.03342483
64	0xbd5785e1	-0.05261791
65	0x3dab7e58	0.083737075
66	0xbc13c0c7	-0.00901813
67	0xbe0930a7	-0.13397466
68	0xbe61a9d0	-0.22037435
69	0x3e9ba362	0.3039809
70	0x3c76360d	0.015027535
71	0x3dc0b70c	0.094099134
72	0x3f07e706	0.5308689
73	0x3e63430b	0.22193544
74	0xbcda0cd3	-0.026617443
75	0xbd076f2c	-0.033065006
76	0xbe4819fa	-0.1954116
77	0x3ea3824b	0.31935343
78	0x3d8c1d37	0.0684151
79	0x3decf311	0.11569799
80	0xbe65e0c0	-0.22449017
81	0x3dd524b1	0.10407389
82	0x3f068d2d	0.5255917
83	0x3eb85c71	0.36008027
84	0xbf0c9ae0	-0.5492382
85	0x3e0fbc63	0.14036708
86	0x3c90a87a	0.01765846
87	0x3db71dca	0.08941229
88	0xbd42d623	-0.047567498
89	0xbe751712	-0.23934582
90	0x3d9ec0a3	0.07751586
91	0x3e2c82d3	0.1684678
92	0xbe8d3b63	-0.2758437
93	0x3e3facfc	0.18718332
94	0xbe14c669	-0.14528812
95	0x3d27e791	0.040992323
96	0xbe3fa5e2	-0.18715623
97	0xbd97581b	-0.07389852
98	0x3e5fee09	0.21868147
99	0xbe3e4557	-0.18581139
100	0xbf0c5e22	-0.54831135
101	0x3ec23970	0.37934446
102	0xbe58015c	-0.21094269
103	0x3e38a6ca	0.18032375
104	0xbe24f32b	-0.16108386
105	0x3d9bb765	0.07603339
106	0xbd14a536	-0.03629037
107	0xbdaac860	-0.08339
108	0xbe17d292	-0.1482642
109	0x3d169214	0.036760405
110	0xbe46a674	-0.19399434
111	0xbd06bb30	-0.03289336
112	0xbc5331cb	-0.01289029
113	0x3ebe5511	0.37174276
114	0x3e360e8c	0.17778987
115	0x3d55aeb3	0.05216856
116	0x3cd0da65	0.025494764
117	0x3e394c0f	0.1809542
118	0x3e09f818	0.13473547
119	0xbdd7d800	-0.105392456

fc2.weight f4 [84, 120]
0	0x3d7bba4f	0.061456975
1	0xbd3762d9	-0.044772003
2	0xbe5b937f	-0.21442984
3	0xbe6c025a	-0.23047772
4	0x3e42138d	0.1895277
5	0x3eb5f58d	0.35538903
6	0xbe3c1ace	-0.183696
7	0xbe2c4741	-0.16824056
8	0xbdd05e14	-0.10174194
9	0xbd3b0caa	-0.045666374
10	0xbcc80723	-0.024417466
11	0xbe6c0458	-0.23048532
12	0x3c66193d	0.014044103
13	0xbe6377e6	-0.22213706
14	0x3e9276af	0.28606173
15	0x3cb0ea17	0.021595998
16	0xbe868050	-0.2626977
17	0x3dda3d15	0.10656182
18	0xbc6e1a59	-0.014532649
19	0xbe5d8a11	-0.216347
20	0x3dc38586	0.09546952
21	0x3d2dabd5	0.0424002
22	0x3dd260ad	0.10272346
23	0xbea32441	-0.31863597
24	0x3c819ade	0.015820917
25	0x3e99b2b0	0.3001914
26	0xbd2367ff	-0.0398941
27	0xbdccaf2c	-0.09994349
28	0xbe463437	-0.19355856
29	0xbe3fdf50	-0.1873753
30	0xbe41dd03	-0.18931966
31	0xbde4d626	-0.11173658
32	0x3ddb02e7	0.10693913
33	0xbe29cf6c	-0.16583031
34	0xbd0cc00e	-0.034362845
35	0x3dbb5e4a	0.091488436
36	0x3f002d37	0.5006899
37	0x3c5c8c05	0.013461118
38	0x3e232082	0.1593037
39	0x3cbc980b	0.023021718
40	0xbe897fc3	-0.26855287
41	0x3e4577b2	0.19283941
42	0x3ced4454	0.028963245
43	0xbe35ae7c	-0.17742342
44	0xbddb362b	-0.10703691
45	0xbe48ba74	-0.19602376
46	0x3e0956d9	0.13412036
47	0xbd9f37f0	-0.07774341
48	0x3e2e71ce	0.170356
49	0xbe58b784	-0.21163756
50	0xbe396908	-0.18106472
51	0xbe8f5609	-0.27995327
52	0xbd3f9aa7	-0.046778347
53	0xbd6c4057	-0.057678547
54	0xbd9cef3b	-0.07662817
55	0xbdf7530d	-0.120763876
56	0xbe769542	-0.24080375
57	0xbe1ff4ca	-0.15620723
58	0x3e87d8dd	0.2653264
59	0x3dce9ac1	0.10088111
60	0xbdd0077e	-0.10157679
61	0x3ebba142	0.36646467
62	0x3e912bf9	0.2835386
63	0xbd2c9c8c	-0.042141482
64	0x3d8dd328	0.069250405
65	0x3cde1807	0.027111067
66	0xbe8284de	-0.25491995
67	0xbb84c036	-0.0040512336
68	0x3d3d08a5	0.046150822
69	0xbc28ac9e	-0.010295061
70	0xbdfd4aef	-0.12367808
71	0xbe7270c4	-0.23675829
72	0x3dfb9b91	0.12285531
73	0xbc633ea1	-0.013869912
74	0x3da273e5	0.079322614
75	0x3da47d42	0.080317035
76	0xbcd2fbb9	-0.025754796
77	0x3dc46321	0.0958922
78	0xbd6c8438	-0.05774328
79	0xbe9b03e1	-0.30276397
80	0x3d2b57c8	0.04183176
81	0xbe06c97c	-0.13162798
82	0x3eb5c859	0.35504416
83	0x3e13d0a6	0.14435062
84	0xbec3104a	-0.38098365
85	0xbe35f348	-0.17768586
86	0xbe285dd0	-0.16442037
87	0x3e2696f0	0.16268516
88	0x3d3f71e4	0.046739474
89	0xbd7d5560	-0.061848998
90	0xbe2c3fea	-0.16821256
91	0xbdf65e2f	-0.12029683
92	0xbdf27020	-0.118377924
93	0x3e0e07f5	0.13870223
94	0x3c65c289	0.014023432
95	0xbe84396f	-0.25825068
96	0xbe740d28	-0.23833144
97	0xbdb044a8	-0.08606845
98	0xbd2fedfe	-0.042951576
99	0xbecb89c6	-0.3975355
100	0xbe4dae94	-0.20086128
101	0x3dddd21e	0.10831092
102	0x3d74fe94	0.059813097
103	0x3e093b11	0.13401438
104	0x3daaa137	0.083315305
105	0xbe48355b	-0.19551603
106	0xbebaf9ac	-0.3651861
107	0x3d572409	0.0525246
108	0xbd03fe6b	-0.032225054
109	0xbe5e4b86	-0.21708497
110	0xbdedfb72	-0.11620225
111	0x3e537f0f	0.20653938
112	0x3d29cd09	0.041455302
113	0xbda9ff45	-0.08300642
114	0xbe1c9869	-0.15292515
115	0xbe391dc0	-0.18077755
116	0x3df8c8fd	0.121477105
117	0x3e9ac8a9	0.30231217
118	0xbdcd6757	-0.10029476
119	0xbe5b9948	-0.21445191
120	0xbe72919b	-0.23688357
121	0xbdc82e10	-0.09774411
122	0xbe18a3a6	-0.14906177
123	0xbe89a428	-0.26883054
124	0xbe4a1414	-0.19734222
125	0xbdd3d2f6	-0.10342972
126	0x3d6d4b61	0.057933215
127	0x3e127785	0.14303406
128	0x3cde5f65	0.027145097
129	0x3d818e81	0.063260086
130	0xbe1affdc	-0.15136665
131	0xbdb4755a	-0.088114455
132	0xbb87c7b5	-0.00414368
133	0x3ea2ee75	0.31822553
134	0xbacb9dc2	-0.0015534686
135	0x3da56d58	0.08077496
136	0xbed142cf	-0.40871283
137	0xbe4b23d6	-0.19837889
138	0x3e2e2a49	0.17008318
139	0x3de1ab3f	0.11018991
140	0xbdda9844	-0.106735736
141	0xbe1c91f3	-0.1529005
142	0xbd7679bc	-0.06017469
143	0x3c8041ef	0.01565644
144	0x3db0ccee	0.08632837
145	0xbda6d689	-0.08146388
146	0xbe1c1cd7	-0.15245377
147	0x3e703072	0.2345598
148	0xbd7cb45c	-0.06169544
149	0xbe918345	-0.28420463
150	0xbe07d962	-0.13266519
151	0x3ce3b087	0.027794136
152	0x3e1eec26	0.15519771
153	0xbd88be0d	-0.06676874
154	0xbe704019	-0.23461951
155	0xbe1d3d73	-0.15355472
156	0xbe105751	-0.14095809
157	0xbdd6b47b	-0.10483643
158	0xbe3f20e7	-0.18664895
159	0xbd28aa68	-0.041178137
160	0xbd2b1b9d	-0.04177438
161	0x39d9dbdd	0.00041553276
162	0xbd978852	-0.07399048
163	0x3e24c8bf	0.16092204
164	0xbc870df3	-0.016486144
165	0x3e00f92b	0.1259505
166	0xbe73b6c5	-0.2380019
167	0x3caf9505	0.021433363
168	0xbe8c0fbd	-0.27355757
169	0x3e53b279	0.2067355
170	0x3dc34b78	0.09535879
171	0xbda2098d	-0.07911978
172	0x3e10a131	0.1412399
173	0x3dc8f245	0.09811834
174	0xbe9f10e1	-0.31067565
175	0x3e51980b	0.20468156
176	0x3caf2188	0.021378294
177	0xbe39381e	-0.18087813
178	0xbe81e333	-0.25368652
179	0xbe56e3fc	-0.20985407
180	0xbd296af2	-0.041361757
181	0xbe5b9b92	-0.21446064
182	0xbe4037b1	-0.18771245
183	0xbb319a58	-0.0027100053
184	0x3d64663f	0.055761572
185	0xbd4fd79c	-0.05074273
186	0xbd854697	-0.065076046
187	0x3e511abf	0.20420359
188	0x3e48a30f	0.19593452
189	0x3b0a743d	0.0021126412
190	0xbee1f481	-0.44131854
191	0xbdb99090	-0.09060776
192	0x3cda4a0f	0.026646642
193	0x3e2a1ebe	0.1661329
194	0xbe4a8c36	-0.19780049
195	0xbd455b43	-0.048182737
196	0xbb01bceb	-0.0019796442
197	0xbeb7d224	-0.35902512
198	0xbe4818ac	-0.19540662
199	0xbdc6b247	-0.097019725
200	0xbddae17c	-0.10687539
201	0xbe2f659e	-0.17128608
202	0xbebb728c	-0.3661083
203	0xbddbe83a	-0.10737653
204	0x3caf0ef4	0.021369435
205	0xbdfd48fc	-0.12367436
206	0x3d231de2	0.03982342
207	0x3e29d1cc	0.16583937
208	0xbd24acef	-0.040203985
209	0x3d17c000	0.03704834
210	0xba2c135d	-0.00065641647
211	0x3e1e8f07	0.15484248
212	0x3d9a9ada	0.07549067
213	0x3c695f99	0.014243984
214	0x3da45912	0.08024801
215	0x3de4c53e	0.111704335
216	0x3e6087a5	0.21926744
217	0xbd44dbdc	-0.048061237
218	0x3d530b5d	0.05152451
219	0xbe9212b6	-0.285299
220	0xbdb83050	-0.0899359
221	0xbd9616ab	-0.07328542
222	0xbe15485b	-0.14578383
223	0xbe8564d3	-0.26053485
224	0x3da98dcd	0.082789995
225	0xbec5a072	-0.38598973
226	0xbe4e13a7	-0.20124684
227	0xbcf7c032	-0.030243013
228	0x3d19b017	0.037521448
229	0xbe969a11	-0.29414418
230	0xbe9f4cf2	-0.31113392
231	0xbe182cf7	-0.14860903
232	0x3dd3a145	0.10333494
233	0xbe8661a9	-0.26246384
234	0xbe152aa4	-0.14567047
235	0x3df8c2e5	0.12146548
236	0xbc8f959b	-0.017527392
237	0xbe2a8c06	-0.16654977
238	0x3e028241	0.12745
239	0xbe2681d5	-0.16260464
240	0x3e64396d	0.22287531
241	0xbd41971d	-0.047263253
242	0x3d899296	0.06717412
243	0xbe4daa78	-0.2008456
244	0x3e33c663	0.17556147
245	0xbc5d9859	-0.013525092
246	0xbe909f67	-0.28246614
247	0x3e4c9fd3	0.19982843
248	0x3c214ad2	0.009844499
249	0x3d6ed280	0.058306217
250	0xbe390a93	-0.1807044
251	0xbe73e942	-0.2381945
252	0xbe4b0250	-0.19825101
253	0xbcc95ef6	-0.024581414
254	0xbcbb9edf	-0.022902904
255	0x3c84be87	0.016204132

fc2.bias f4 [84]
0	0x3f3a2b4e	0.7272233
1	0x3ec3e8a7	0.38263437
2	0xbe19eb96	-0.15031275
3	0x3d637239	0.055528853
4	0xbd8be4f1	-0.068307765
5	0x3e25a5f4	0.16176587
6	0xbd391b25	-0.045191903
7	0xbcd03429	-0.025415497
8	0x3e8da725	0.27666584
9	0x3ed852d4	0.42250693
10	0x3ec56cb0	0.38559484
11	0x3d264221	0.04059041
12	0x3eaebf79	0.34130457
13	0xbe96b2e2	-0.29433352
14	0xbe800c79	-0.25009516
15	0x3f14bc48	0.58099794
16	0x3cc55c78	0.024091944
17	0xbdd1511f	-0.10220551
18	0x3c8bfb9b	0.017087748
19	0x3e8532aa	0.26015216
20	0x3e724bfb	0.23661797
21	0x3ece6182	0.40308768
22	0x3f042187	0.5161366
23	0xbe1be265	-0.15223081
24	0x3d8fd691	0.07023347
25	0x3f1d4d51	0.614461
26	0x3e02904c	0.12750357
27	0xbe20c4a9	-0.1570002
28	0xbce43e9e	-0.02786189
29	0x3f06959d	0.5257204
30	0x3ee2c5e8	0.44291615
31	0xbe1aa968	-0.15103686
32	0x3ea0a929	0.3137906
33	0x3d5890ae	0.052872352
34	0x3d5ce185	0.05392601
35	0xbd8814f1	-0.06644619
36	0xbe4b0130	-0.19824672
37	0x3d3965b8	0.045263022
38	0xbd999a8c	-0.075001806
39	0x3eea10c1	0.45715907
40	0x3e91ef5c	0.2850293
41	0x3fa29ebd	1.2704693
42	0xbe2e2791	-0.17007281
43	0x3f048e01	0.5177918
44	0xbc128cf4	-0.008944739
45	0xbd5023f6	-0.050815545
46	0xbcb09e74	-0.021559931
47	0x3ee69b17	0.450402
48	0xbe0569b8	-0.1302861
49	0x3f5cb2a3	0.8621008
50	0x3ed2dd41	0.41184428
51	0x3f1b26bb	0.60605973
52	0x3f4004e4	0.7500746
53	0x3e2fc983	0.17166714
54	0x3f060131	0.5234557
55	0x3e30bf14	0.1726039
56	0x3cb72032	0.02235422
57	0x3e9dc8e4	0.3081733
58	0x3f1e9f48	0.61961794
59	0x3d43c1e2	0.047792323
60	0x3c647901	0.013944865
61	0x3e3fc3da	0.18727055
62	0xbe37b0dd	-0.17938562
63	0x3f14502c	0.5793483
64	0x3e22b75a	0.15890256
65	0x3fc1b751	1.5134069
66	0x3e4c5b33	0.19956665
67	0x3dc84f0c	0.09780702
68	0xbe691ac4	-0.22764117
69	0x3c983546	0.01858009
70	0x3d4f14c4	0.050556913
71	0x3dbc8840	0.09205675
72	0xbe9c5ecd	-0.30541077
73	0xbd2fce5b	-0.042921405
74	0x3ece59a9	0.4030278
75	0xbdcd4690	-0.10023224
76	0x3f836bc7	1.0267266
77	0xbd194691	-0.037420813
78	0xbe290d06	-0.16508874
79	0xbd7672fd	-0.060168255
80	0x3e20bc2e	0.15696785
81	0x3da03b2c	0.07823786
82	0x3df5e8e8	0.12007314
83	0xbcbe388e	-0.023220327

fc3.weight f4 [10, 84]
0	0xbccfe246	-0.02537645
1	0xbe351b98	-0.17686307
2	0xbe3bb10d	-0.18329258
3	0xb92d2965	-0.00016513986
4	0x3e2f631f	0.17127655
5	0x3e5b3c90	0.21409822
6	0x3e2fd8b5	0.17172511
7	0x3c1895d1	0.009313063
8	0xbd3b9c33	-0.04580326
9	0x3e14e0db	0.145389
10	0x3e56549a	0.2093071
11	0x3e31a2d6	0.17347273
12	0x3c2c66e8	0.010522582
13	0x3dbc1be8	0.0918501
14	0x3d1683ac	0.036746666
15	0x3df2f592	0.11863245
16	0x3e73ae85	0.23797043
17	0xbe52a613	-0.20571165
18	0x3e91546b	0.28384718
19	0xbc320f0c	-0.010867845
20	0x3d392941	0.04520536
21	0x3e0af956	0.13571677
22	0x3e4898d3	0.19589548
23	0x3c58c6a6	0.013230955
24	0xbdfb613b	-0.122744046
25	0xbe394ebb	-0.1809644
26	0x3d9d4028	0.076782525
27	0x3d9c9750	0.07646048
28	0x3e456478	0.19276607
29	0xbe86c003	-0.26318368
30	0xbd91a1f8	-0.07110971
31	0x3e20fef6	0.1572226
32	0x3dadca2e	0.08485828
33	0x3e8ff431	0.2811599
34	0xbdbaf142	-0.091280475
35	0x3e064544	0.1311236
36	0x3e21b4f2	0.15791681
37	0xbe528b24	-0.2056089
38	0x3e4ee13e	0.2020311
39	0xbe05b115	-0.13055833
40	0xbe4bf520	-0.19917727
41	0xbd8f37bd	-0.06993053
42	0x3d59284c	0.053016946
43	0xbd193205	-0.037401218
44	0xbdbdce0d	-0.09267817
45	0xbd4c72a5	-0.04991402
46	0xbde98847	-0.11402946
47	0x3c03294f	0.008005454
48	0xbe252ab3	-0.1612957
49	0x3d1af9ca	0.037835874
50	0xbe97a6a6	-0.2961933
51	0x3dc1b95d	0.09459183
52	0x3e0cab70	0.13737273
53	0xbd40badf	-0.047053214
54	0x3dbbe24b	0.09174021
55	0x3e97fce6	0.29685134
56	0x3e55530c	0.20832461
57	0x3e37a44c	0.17933768
58	0xbe95680a	-0.29180938
59	0x3e4bea7c	0.19913667
60	0xbe78d890	-0.24301362
61	0x3e502749	0.20327486
62	0xbd680c68	-0.056652457
63	0x3dc16ab9	0.09444184
64	0x3d8b8dd7	0.06814163
65	0xbec6097e	-0.38679117
66	0x3e43ca95	0.19120248
67	0xbdb50611	-0.08839048
68	0x3e0f7fb0	0.14013553
69	0x3e4dd935	0.20102389
70	0x3cc86530	0.024462312
71	0x3e05bde0	0.13060713
72	0xbbde5560	-0.00678508
73	0x3e63e7ad	0.22256346
74	0x3cdd5a23	0.02702052
75	0x3cdf28b9	0.027241098
76	0xbeb6cb92	-0.35702187
77	0xbe0a87f7	-0.13528429
78	0xbde323d9	-0.11090822
79	0x3c02fff4	0.007995594
80	0xbe23f471	-0.16011216
81	0xbe1a2d86	-0.15056428
82	0x3e5eceba	0.21758547
83	0xbe06dede	-0.13170955
84	0x3e347fc9	0.17626871
85	0xbe8e25c1	-0.2776318
86	0x3ec7f942	0.39057356
87	0x3e8b4bc2	0.27206236
88	0x3e360ff3	0.17779522
89	0x3e67459b	0.22585146
90	0xbdb62cd6	-0.088952705
91	0x3e75b92e	0.23996422
92	0xbdeb528a	-0.114903525
93	0xbdf145e7	-0.11780911
94	0xbe54bd75	-0.20775397
95	0xbe0a3aec	-0.1349904
96	0xbd7a4e9e	-0.06111013
97	0x3e3c37d6	0.18380675
98	0x3e73ea0f	0.23819755
99	0xbc02a4ac	-0.007973831
100	0xbe0547cd	-0.13015671
101	0x3c2ce1e5	0.010551904
102	0x3ea7fdba	0.32810766
103	0x3e1f0758	0.15530145
104	0xbda5adfb	-0.08089825
105	0xbe2f9843	-0.17147927
106	0x3dd689be	0.10475491
107	0x3e2bfac3	0.16794877
108	0x3dbd5eed	0.09246621
109	0xbd660422	-0.056156285
110	0xbe289ffd	-0.1646728
111	0xbdbd10ef	-0.092317455
112	0xbe13a0d5	-0.14416821
113	0x3e422e9d	0.18963094
114	0xbd5749a9	-0.052560482
115	0x3e7378dd	0.23776574
116	0x3d993ba7	0.07482081
117	0x3ea4161b	0.32048115
118	0x3e44d582	0.19222072
119	0x3c753646	0.014966553
120	0xbb730d8e	-0.0037086937
121	0x3da26cb2	0.07930888
122	0xbde69843	-0.1125951
123	0x3e50a5fd	0.2037582
124	0x3d917dd3	0.07104077
125	0xbf00dd58	-0.50337744
126	0x3e135f6e	0.14391872
127	0xbd9899b0	-0.074511886
128	0x3de1b803	0.110214256
129	0xbe11ccff	-0.14238356
130	0x3e469de9	0.19396175
131	0x3e2e57ed	0.17025729
132	0x3e181431	0.14851452
133	0xbe8328b7	-0.25617
134	0xbe7c7cc4	-0.2465697
135	0xbeae434a	-0.34035712
136	0xbe3f647b	-0.18690674
137	0x3d87fe81	0.0664034
138	0x3e821c84	0.2541238
139	0x3e66aea6	0.2252756
140	0xbe9f1fca	-0.3107894
141	0x3ca6117b	0.020272007
142	0x3d1ec7db	0.038764816
143	0x3cc4163c	0.023936383
144	0x3e02a7dd	0.12759347
145	0xbce51d06	-0.027967941
146	0xbda28b42	-0.079367176
147	0x3e46b365	0.19404371
148	0x3e582f90	0.21111894
149	0xbe8c9ebe	-0.2746486
150	0xbe41a21a	-0.18909493
151	0x3d955d51	0.07293189
152	0x3e27b040	0.16375828
153	0x3d20fa8b	0.039301436
154	0x3c5aeec5	0.013362591
155	0xbcf3b098	-0.029747292
156	0x3d48bc59	0.049007747
157	0x3ea8653e	0.32889742
158	0xbedcefde	-0.43151754
159	0xbd1561eb	-0.036470335
160	0xbe9bff6f	-0.30468318
161	0xbe086136	-0.13318333
162	0x3e81c4c8	0.25345445
163	0x3da22687	0.07917505
164	0xbe80f3ca	-0.25185996
165	0xbe4a47c5	-0.1975394
166	0x3ca0fb6e	0.019651141
167	0x3d29bf26	0.04144206
168	0xbd4e7eeb	-0.050414007
169	0x3e2e134a	0.16999546
170	0xbd4a6173	-0.04940934
171	0xbe37d132	-0.17950895
172	0xbc3045b2	-0.010758804
173	0x3e07dbf8	0.13267505
174	0x3dde1fa1	0.108458765
175	0x3e0f9527	0.14021741
176	0x3e673e83	0.2258244
177	0x3e1014c7	0.14070426
178	0x3c491f92	0.012275593
179	0x3e5c04bc	0.21486181
180	0xbdaeb4d9	-0.08530588
181	0x3dacf926	0.08445959
182	0xbd36bda0	-0.044614434
183	0x3cac2dc8	0.021017924
184	0x3da1fea3	0.07909896
185	0x3dd0457d	0.10169504
186	0xbc99d7ff	-0.018779753
187	0xbe10779a	-0.14108124
188	0x3d3565ef	0.044286665
189	0x3e571e54	0.21007663
190	0xbdc80607	-0.097667746
191	0x3e1daacd	0.15397187
192	0xbdd06614	-0.1017572
193	0xbe5c3370	-0.21503997
194	0x3e36398c	0.1779539
195	0x3e438c5a	0.19096509
196	0x3e27dcdc	0.16392845
197	0xbdc8b015	-0.0979921
198	0x3e886ad6	0.2664401
199	0x3c85fd9f	0.016356288
200	0xbc718968	-0.014742233
201	0xbe1f1345	-0.15534694
202	0x3d508398	0.050906748
203	0xbe0a9cf9	-0.13536443
204	0x3e96bffc	0.29443347
205	0x3da1c0a2	0.0789807
206	0x3dde4b44	0.108541995
207	0xbb5461cc	-0.0032406924
208	0x3de856f8	0.11344713
209	0x3e42a0bb	0.19006626
210	0xbc6107b9	-0.013734751
211	0x3ba6e6ca	0.00509343
212	0x3e01398d	0.1261961
213	0x3e1f3faf	0.15551637
214	0x3cdd4c35	0.027013877
215	0xbdce061e	-0.100597605
216	0xbe06e671	-0.13173844
217	0xbcc11107	-0.02356769
218	0x3dd3b519	0.10337276
219	0x3e37f541	0.1796465
220	0x3e13d4ca	0.14436641
221	0x3d1e6036	0.038665973
222	0xbd22d393	-0.039752554
223	0xbe6b7fdc	-0.22997993
224	0x3e1854bc	0.14876074
225	0xbd3fa5de	-0.046789043
226	0x3e4d33f8	0.20039356
227	0xbdc43c1a	-0.09581776
228	0xbce6898c	-0.02814176
229	0x3dd027f3	0.1016387
230	0xbcbd9240	-0.023141026
231	0xbd77e772	-0.060523458
232	0xbe5a9b7c	-0.21348375
233	0x3e1abeef	0.15111898
234	0xbe695b0b	-0.22788636
235	0x3e899ee9	0.2687905
236	0x3e82af71	0.25524476
237	0x3d202272	0.03909535
238	0x3db1f8f7	0.086900644
239	0xbd08caae	-0.033396415
240	0xbd270239	-0.040773604
241	0xbdb1ba85	-0.08678154
242	0x3e7de081	0.24792673
243	0x3e57aa44	0.21061045
244	0x3e8ab709	0.2709277
245	0x3d202c35	0.03910466
246	0xbd857cde	-0.06517957
247	0x3d5ff253	0.054674458
248	0xbe11d273	-0.14240436
249	0x3cdfe8fb	0.027332773
250	0xbde2fbbb	-0.1108317
251	0x3e84254a	0.258097
252	0xbdf3f048	-0.119110644
253	0x3e055578	0.13020885
254	0x3ca90a02	0.020634655
255	0xbc318186	-0.010834103

fc3.bias f4 [10]
0	0xbeec5f51	-0.4616647
1	0xbfa94c48	-1.3226404
2	0xbee3984c	-0.4445213
3	0x3f5918cc	0.8480346
4	0x3f7bafb4	0.98314977
5	0x3e8d3d7d	0.27585974
6	0x3f18fe18	0.59762716
7	0xbd982a92	-0.07429995
8	0x3f1ace75	0.6047128
9	0xbf03c9e0	-0.5147991
